
EXECUTION PARAMETERS: {NUMBER OF FOLDERS:  10 }-{NUMBER OF EPOCHS:  80 }-{NUMBER OF ROUTINE ITERATIONS:  1 }-{BATCH SIZE :  32 }-{SIGNAL MODE:  fp }-{AUGMENT: Sad }-{FEATURES:  ('mfcc', 'deltas', 'lpcc', 'formants') }-{EMOTIONS: ('Sad', 'Happy', 'Angry', 'Neutral') }

####ITERATION NUMBER:  1

#####FOLDER NUMBER: 1
Starting LSTM
Model: "sequential"
_________________________________________________________________
Layer (type)                 Output Shape              Param #   
=================================================================
masking (Masking)            (None, 44, 29)            0         
_________________________________________________________________
lstm (LSTM)                  (None, 44, 256)           292864    
_________________________________________________________________
dropout (Dropout)            (None, 44, 256)           0         
_________________________________________________________________
lstm_1 (LSTM)                (None, 128)               197120    
_________________________________________________________________
dropout_1 (Dropout)          (None, 128)               0         
_________________________________________________________________
dense (Dense)                (None, 4)                 516       
=================================================================
Total params: 490,500
Trainable params: 490,500
Non-trainable params: 0
_________________________________________________________________
Epoch 1/80
10/10 - 10s - loss: 1.3222 - accuracy: 0.3245 - val_loss: 1.0915 - val_accuracy: 0.5294
Epoch 2/80
10/10 - 3s - loss: 1.0680 - accuracy: 0.4868 - val_loss: 1.0161 - val_accuracy: 0.6471
…
