
EXECUTION PARAMETERS: {NUMBER OF FOLDERS:  10 }-{NUMBER OF EPOCHS:  80 }-{NUMBER OF ROUTINE ITERATIONS:  1 }-{BATCH SIZE :  32 }-{SIGNAL MODE:  fp }-{AUGMENT: Sad }-{FEATURES:  mfcc }-{EMOTIONS: ('Sad', 'Happy', 'Angry', 'Neutral') }

####ITERATION NUMBER:  1

#####FOLDER NUMBER: 1
Starting LSTM
Model: "sequential"
_________________________________________________________________
Layer (type)                 Output Shape              Param #   
=================================================================
masking (Masking)            (None, 44, 13)            0         
_________________________________________________________________
lstm (LSTM)                  (None, 256)               276480    
_________________________________________________________________
dropout (Dropout)            (None, 256)               0         
_________________________________________________________________
dense (Dense)                (None, 128)               32896     
_________________________________________________________________
dropout_1 (Dropout)          (None, 128)               0         
_________________________________________________________________
dense_1 (Dense)              (None, 4)                 516       
=================================================================
Total params: 309,892
Trainable params: 309,892
Non-trainable params: 0
_________________________________________________________________
Epoch 1/80
10/10 - 8s - loss: 1.4667 - accuracy: 0.3377 - val_loss: 1.2376 - val_accuracy: 0.2647
Epoch 2/80
10/10 - 3s - loss: 1.2158 - accuracy: 0.4702 - val_loss: 1.0309 - val_accuracy: 0.4412
…
