
EXECUTION PARAMETERS: {NUMBER OF FOLDERS:  10 }-{NUMBER OF EPOCHS:  80 }-{NUMBER OF ROUTINE ITERATIONS:  1 }-{BATCH SIZE :  32 }-{SIGNAL MODE:  fp }-{AUGMENT: Sad }-{FEATURES:  mfcc }-{EMOTIONS: ('Sad', 'Happy', 'Angry', 'Neutral') }

####ITERATION NUMBER:  1

#####FOLDER NUMBER: 1
Starting LSTM
Model: "sequential"
_________________________________________________________________
Layer (type)                 Output Shape              Param #   
=================================================================
masking (Masking)            (None, 44, 13)            0         
_________________________________________________________________
lstm (LSTM)                  (None, 44, 128)           72704     
_________________________________________________________________
dropout (Dropout)            (None, 44, 128)           0         
_________________________________________________________________
lstm_1 (LSTM)                (None, 64)                49408     
_________________________________________________________________
dropout_1 (Dropout)          (None, 64)                0         
_________________________________________________________________
dense (Dense)                (None, 32)                2080      
_________________________________________________________________
dropout_2 (Dropout)          (None, 32)                0         
_________________________________________________________________
dense_1 (Dense)              (None, 4)                 132       
=================================================================
Total params: 124,324
Trainable params: 124,324
Non-trainable params: 0
_________________________________________________________________
Epoch 1/80
10/10 - 12s - loss: 1.4116 - accuracy: 0.3344 - val_loss: 1.2624 - val_accuracy: 0.2353
Epoch 2/80
10/10 - 1s - loss: 1.3329 - accuracy: 0.3709 - val_loss: 1.1200 - val_accuracy: 0.5588
…
