
EXECUTION PARAMETERS: {NUMBER OF FOLDERS:  10 }-{NUMBER OF EPOCHS:  80 }-{NUMBER OF ROUTINE ITERATIONS:  1 }-{BATCH SIZE :  32 }-{SIGNAL MODE:  fp }-{AUGMENT: Sad }-{FEATURES:  mfcc }-{EMOTIONS: ('Sad', 'Happy', 'Angry', 'Neutral') }

####ITERATION NUMBER:  1

#####FOLDER NUMBER: 1
Starting LSTM
Model: "sequential"
_________________________________________________________________
Layer (type)                 Output Shape              Param #   
=================================================================
masking (Masking)            (None, 44, 13)            0         
_________________________________________________________________
lstm (LSTM)                  (None, 128)               72704     
_________________________________________________________________
dropout (Dropout)            (None, 128)               0         
_________________________________________________________________
dense (Dense)                (None, 64)                8256      
_________________________________________________________________
dropout_1 (Dropout)          (None, 64)                0         
_________________________________________________________________
dense_1 (Dense)              (None, 4)                 260       
=================================================================
Total params: 81,220
Trainable params: 81,220
Non-trainable params: 0
_________________________________________________________________
Epoch 1/80
10/10 - 3s - loss: 1.5243 - accuracy: 0.3311 - val_loss: 1.3042 - val_accuracy: 0.2059
Epoch 2/80
10/10 - 1s - loss: 1.3919 - accuracy: 0.3377 - val_loss: 1.0787 - val_accuracy: 0.5588
…
