
EXECUTION PARAMETERS: {NUMBER OF FOLDERS:  10 }-{NUMBER OF EPOCHS:  80 }-{NUMBER OF ROUTINE ITERATIONS:  1 }-{BATCH SIZE :  32 }-{SIGNAL MODE:  fp }-{AUGMENT: Sad }-{FEATURES:  mfcc }-{EMOTIONS: ('Sad', 'Happy', 'Angry', 'Neutral') }

####ITERATION NUMBER:  1

#####FOLDER NUMBER: 1
Starting LSTM
Model: "sequential"
_________________________________________________________________
Layer (type)                 Output Shape              Param #   
=================================================================
masking (Masking)            (None, 44, 13)            0         
_________________________________________________________________
lstm (LSTM)                  (None, 44, 128)           72704     
_________________________________________________________________
dropout (Dropout)            (None, 44, 128)           0         
_________________________________________________________________
lstm_1 (LSTM)                (None, 44, 64)            49408     
_________________________________________________________________
dropout_1 (Dropout)          (None, 44, 64)            0         
_________________________________________________________________
lstm_2 (LSTM)                (None, 32)                12416     
_________________________________________________________________
dropout_2 (Dropout)          (None, 32)                0         
_________________________________________________________________
dense (Dense)                (None, 4)                 132       
=================================================================
Total params: 134,660
Trainable params: 134,660
Non-trainable params: 0
_________________________________________________________________
Epoch 1/80
10/10 - 23s - loss: 1.3420 - accuracy: 0.3179 - val_loss: 1.2355 - val_accuracy: 0.5000
Epoch 2/80
10/10 - 2s - loss: 1.2185 - accuracy: 0.4669 - val_loss: 1.1343 - val_accuracy: 0.6471
…
