
EXECUTION PARAMETERS: {NUMBER OF FOLDERS:  10 }-{NUMBER OF EPOCHS:  80 }-{NUMBER OF ROUTINE ITERATIONS:  1 }-{BATCH SIZE :  32 }-{SIGNAL MODE:  fp }-{AUGMENT: Sad }-{FEATURES:  mfcc }-{EMOTIONS: ('Sad', 'Happy', 'Angry', 'Neutral') }

####ITERATION NUMBER:  1

#####FOLDER NUMBER: 1
Starting LSTM
Model: "sequential"
_________________________________________________________________
Layer (type)                 Output Shape              Param #   
=================================================================
masking (Masking)            (None, 44, 13)            0         
_________________________________________________________________
lstm (LSTM)                  (None, 44, 256)           276480    
_________________________________________________________________
dropout (Dropout)            (None, 44, 256)           0         
_________________________________________________________________
lstm_1 (LSTM)                (None, 128)               197120    
_________________________________________________________________
dropout_1 (Dropout)          (None, 128)               0         
_________________________________________________________________
dense (Dense)                (None, 4)                 516       
=================================================================
Total params: 474,116
Trainable params: 474,116
Non-trainable params: 0
_________________________________________________________________
Epoch 1/80
10/10 - 7s - loss: 1.3349 - accuracy: 0.3377 - val_loss: 1.1383 - val_accuracy: 0.3235
Epoch 2/80
10/10 - 3s - loss: 1.0750 - accuracy: 0.4768 - val_loss: 1.0123 - val_accuracy: 0.6471
…
