
EXECUTION PARAMETERS: {NUMBER OF FOLDERS:  10 }-{NUMBER OF EPOCHS:  80 }-{NUMBER OF ROUTINE ITERATIONS:  1 }-{BATCH SIZE :  32 }-{SIGNAL MODE:  fp }-{AUGMENT: Sad }-{FEATURES:  mfcc }-{EMOTIONS: ('Sad', 'Happy', 'Angry', 'Neutral') }

####ITERATION NUMBER:  1

#####FOLDER NUMBER: 1
Starting LSTM
Model: "sequential"
_________________________________________________________________
Layer (type)                 Output Shape              Param #   
=================================================================
masking (Masking)            (None, 44, 13)            0         
_________________________________________________________________
lstm (LSTM)                  (None, 128)               72704     
_________________________________________________________________
dropout (Dropout)            (None, 128)               0         
_________________________________________________________________
dense (Dense)                (None, 32)                4128      
_________________________________________________________________
dropout_1 (Dropout)          (None, 32)                0         
_________________________________________________________________
dense_1 (Dense)              (None, 4)                 132       
=================================================================
Total params: 76,964
Trainable params: 76,964
Non-trainable params: 0
_________________________________________________________________
Epoch 1/80
10/10 - 8s - loss: 1.5563 - accuracy: 0.2914 - val_loss: 1.2377 - val_accuracy: 0.3529
Epoch 2/80
10/10 - 1s - loss: 1.4098 - accuracy: 0.3444 - val_loss: 1.1377 - val_accuracy: 0.4118
…
