
EXECUTION PARAMETERS: {NUMBER OF FOLDERS:  10 }-{NUMBER OF EPOCHS:  80 }-{NUMBER OF ROUTINE ITERATIONS:  1 }-{BATCH SIZE :  32 }-{SIGNAL MODE:  fp }-{AUGMENT: Sad }-{FEATURES:  ('mfcc', 'lpcc', 'formants', 'intensity') }-{EMOTIONS: ('Sad', 'Happy', 'Angry', 'Neutral') }

####ITERATION NUMBER:  1

#####FOLDER NUMBER: 1
Starting LSTM
Model: "sequential"
_________________________________________________________________
Layer (type)                 Output Shape              Param #   
=================================================================
masking (Masking)            (None, 44, 30)            0         
_________________________________________________________________
lstm (LSTM)                  (None, 256)               293888    
_________________________________________________________________
dropout (Dropout)            (None, 256)               0         
_________________________________________________________________
dense (Dense)                (None, 64)                16448     
_________________________________________________________________
dropout_1 (Dropout)          (None, 64)                0         
_________________________________________________________________
dense_1 (Dense)              (None, 4)                 260       
=================================================================
Total params: 310,596
Trainable params: 310,596
Non-trainable params: 0
_________________________________________________________________
Epoch 1/80
10/10 - 5s - loss: 1.7166 - accuracy: 0.2384 - val_loss: 1.4669 - val_accuracy: 0.1176
Epoch 2/80
10/10 - 2s - loss: 1.7642 - accuracy: 0.2417 - val_loss: 1.4901 - val_accuracy: 0.2647
…
