
EXECUTION PARAMETERS: {NUMBER OF FOLDERS:  10 }-{NUMBER OF EPOCHS:  80 }-{NUMBER OF ROUTINE ITERATIONS:  1 }-{BATCH SIZE :  32 }-{SIGNAL MODE:  fp }-{AUGMENT: Sad }-{FEATURES:  lpcc }-{EMOTIONS: ('Sad', 'Happy', 'Angry', 'Neutral') }

####ITERATION NUMBER:  1

#####FOLDER NUMBER: 1
Starting LSTM
Model: "sequential"
_________________________________________________________________
Layer (type)                 Output Shape              Param #   
=================================================================
masking (Masking)            (None, 451, 13)           0         
_________________________________________________________________
lstm (LSTM)                  (None, 256)               276480    
_________________________________________________________________
dropout (Dropout)            (None, 256)               0         
_________________________________________________________________
dense (Dense)                (None, 64)                16448     
_________________________________________________________________
dropout_1 (Dropout)          (None, 64)                0         
_________________________________________________________________
dense_1 (Dense)              (None, 4)                 260       
=================================================================
Total params: 293,188
Trainable params: 293,188
Non-trainable params: 0
_________________________________________________________________
Epoch 1/80
10/10 - 28s - loss: 1.4597 - accuracy: 0.2748 - val_loss: 1.3959 - val_accuracy: 0.2647
Epoch 2/80
10/10 - 18s - loss: 1.4215 - accuracy: 0.2781 - val_loss: 1.3013 - val_accuracy: 0.4118
…
