
EXECUTION PARAMETERS: {NUMBER OF FOLDERS:  10 }-{NUMBER OF EPOCHS:  80 }-{NUMBER OF ROUTINE ITERATIONS:  1 }-{BATCH SIZE :  32 }-{SIGNAL MODE:  fp }-{AUGMENT: Sad }-{FEATURES:  ('mfcc', 'deltas', 'formants') }-{EMOTIONS: ('Sad', 'Happy', 'Angry', 'Neutral') }

####ITERATION NUMBER:  1

#####FOLDER NUMBER: 1
Starting LSTM
Model: "sequential"
_________________________________________________________________
Layer (type)                 Output Shape              Param #   
=================================================================
masking (Masking)            (None, 44, 29)            0         
_________________________________________________________________
lstm (LSTM)                  (None, 256)               292864    
_________________________________________________________________
dropout (Dropout)            (None, 256)               0         
_________________________________________________________________
dense (Dense)                (None, 64)                16448     
_________________________________________________________________
dropout_1 (Dropout)          (None, 64)                0         
_________________________________________________________________
dense_1 (Dense)              (None, 4)                 260       
=================================================================
Total params: 309,572
Trainable params: 309,572
Non-trainable params: 0
_________________________________________________________________
Epoch 1/80
10/10 - 7s - loss: 1.5623 - accuracy: 0.2947 - val_loss: 1.2677 - val_accuracy: 0.3529
Epoch 2/80
10/10 - 3s - loss: 1.2971 - accuracy: 0.4205 - val_loss: 0.9738 - val_accuracy: 0.5588
…
