
EXECUTION PARAMETERS: {NUMBER OF FOLDERS:  10 }-{NUMBER OF EPOCHS:  80 }-{NUMBER OF ROUTINE ITERATIONS:  1 }-{BATCH SIZE :  32 }-{SIGNAL MODE:  fp }-{AUGMENT: Sad }-{FEATURES:  ('mfcc', 'lpcc', 'intensity') }-{EMOTIONS: ('Sad', 'Happy', 'Angry', 'Neutral') }

####ITERATION NUMBER:  1

#####FOLDER NUMBER: 1
Starting LSTM
Model: "sequential"
_________________________________________________________________
Layer (type)                 Output Shape              Param #   
=================================================================
masking (Masking)            (None, 44, 27)            0         
_________________________________________________________________
lstm (LSTM)                  (None, 256)               290816    
_________________________________________________________________
dropout (Dropout)            (None, 256)               0         
_________________________________________________________________
dense (Dense)                (None, 64)                16448     
_________________________________________________________________
dropout_1 (Dropout)          (None, 64)                0         
_________________________________________________________________
dense_1 (Dense)              (None, 4)                 260       
=================================================================
Total params: 307,524
Trainable params: 307,524
Non-trainable params: 0
_________________________________________________________________
Epoch 1/80
10/10 - 6s - loss: 1.5559 - accuracy: 0.3013 - val_loss: 1.2855 - val_accuracy: 0.2647
Epoch 2/80
10/10 - 2s - loss: 1.2635 - accuracy: 0.4437 - val_loss: 1.0601 - val_accuracy: 0.4412
…
