
EXECUTION PARAMETERS: {NUMBER OF FOLDERS:  10 }-{NUMBER OF EPOCHS:  80 }-{NUMBER OF ROUTINE ITERATIONS:  1 }-{BATCH SIZE :  32 }-{SIGNAL MODE:  fp }-{AUGMENT: Sad }-{FEATURES:  ('mfcc', 'lpcc') }-{EMOTIONS: ('Sad', 'Happy', 'Angry', 'Neutral') }

####ITERATION NUMBER:  1

#####FOLDER NUMBER: 1
Starting LSTM
Model: "sequential"
_________________________________________________________________
Layer (type)                 Output Shape              Param #   
=================================================================
masking (Masking)            (None, 44, 26)            0         
_________________________________________________________________
lstm (LSTM)                  (None, 256)               289792    
_________________________________________________________________
dropout (Dropout)            (None, 256)               0         
_________________________________________________________________
dense (Dense)                (None, 64)                16448     
_________________________________________________________________
dropout_1 (Dropout)          (None, 64)                0         
_________________________________________________________________
dense_1 (Dense)              (None, 4)                 260       
=================================================================
Total params: 306,500
Trainable params: 306,500
Non-trainable params: 0
_________________________________________________________________
Epoch 1/80
10/10 - 3s - loss: 1.5564 - accuracy: 0.3046 - val_loss: 1.2853 - val_accuracy: 0.2647
Epoch 2/80
10/10 - 1s - loss: 1.2636 - accuracy: 0.4437 - val_loss: 1.0603 - val_accuracy: 0.4412
…
