…
00<00:00, 144.95it/s]
ended reading folder Neutral

EXECUTION PARAMETERS: {NUMBER OF FOLDERS:  5 }-{NUMBER OF EPOCHS:  80 }-{NUMBER OF ROUTINE ITERATIONS:  1 }-{BATCH SIZE :  32 }-{SIGNAL MODE:  fp }-{AUGMENT: Sad }-{FEATURES:  mfcc }-{EMOTIONS: ('Sad', 'Happy', 'Angry', 'Neutral') }

####ITERATION NUMBER:  1

#####FOLDER NUMBER: 1
Starting LSTM
None
Model: "sequential"
_________________________________________________________________
Layer (type)                 Output Shape              Param #   
=================================================================
masking (Masking)            (None, 44, 13)            0         
_________________________________________________________________
lstm (LSTM)                  (None, 44, 128)           72704     
_________________________________________________________________
dropout (Dropout)            (None, 44, 128)           0         
_________________________________________________________________
lstm_1 (LSTM)                (None, 44, 64)            49408     
_________________________________________________________________
dropout_1 (Dropout)          (None, 44, 64)            0         
_________________________________________________________________
lstm_2 (LSTM)                (None, 32)                12416     
_________________________________________________________________
dense (Dense)                (None, 4)                 132       
=================================================================
Total params: 134,660
Trainable params: 134,660
Non-trainable params: 0
_________________________________________________________________
Epoch 1/80
9/9 - 27s - loss: 1.3297 - accuracy: 0.3657 - val_loss: 1.2576 - val_accuracy: 0.4118
Epoch 2/80
9/9 - 1s - loss: 1.1663 - accuracy: 0.4701 - val_loss: 1.1706 - val_accuracy: 0.4265
…
