
EXECUTION PARAMETERS: {NUMBER OF FOLDERS:  10 }-{NUMBER OF EPOCHS:  80 }-{NUMBER OF ROUTINE ITERATIONS:  30 }-{BATCH SIZE :  32 }-{SIGNAL MODE:  fp }-{AUGMENT: Sad }-{FEATURES:  mfcc }-{EMOTIONS: ('Sad', 'Happy', 'Angry', 'Neutral', 'Fear', 'Disgust') }

####ITERATION NUMBER:  1

#####FOLDER NUMBER: 1
Starting LSTM
Model: "sequential"
_________________________________________________________________
Layer (type)                 Output Shape              Param #   
=================================================================
masking (Masking)            (None, 465, 13)           0         
_________________________________________________________________
lstm (LSTM)                  (None, 256)               276480    
_________________________________________________________________
dropout (Dropout)            (None, 256)               0         
_________________________________________________________________
dense (Dense)                (None, 32)                8224      
_________________________________________________________________
dropout_1 (Dropout)          (None, 32)                0         
_________________________________________________________________
dense_1 (Dense)              (None, 6)                 198       
=================================================================
Total params: 284,902
Trainable params: 284,902
Non-trainable params: 0
_________________________________________________________________
Epoch 1/80
15/15 - 2s - loss: 2.1754 - accuracy: 0.1925 - val_loss: 1.6718 - val_accuracy: 0.2745
Epoch 2/80
15/15 - 0s - loss: 1.8781 - accuracy: 0.2235 - val_loss: 1.6855 - val_accuracy: 0.2745
…
