
EXECUTION PARAMETERS: {NUMBER OF FOLDERS:  10 }-{NUMBER OF EPOCHS:  80 }-{NUMBER OF ROUTINE ITERATIONS:  30 }-{BATCH SIZE :  32 }-{SIGNAL MODE:  fp }-{AUGMENT: Sad }-{FEATURES:  mfcc }-{EMOTIONS: ('Sad', 'Happy', 'Angry', 'Neutral', 'Fear', 'Surprise', 'Disgust') }

####ITERATION NUMBER:  1

#####FOLDER NUMBER: 1
Starting LSTM
Model: "sequential"
_________________________________________________________________
Layer (type)                 Output Shape              Param #   
=================================================================
masking (Masking)            (None, 465, 13)           0         
_________________________________________________________________
lstm (LSTM)                  (None, 256)               276480    
_________________________________________________________________
dropout (Dropout)            (None, 256)               0         
_________________________________________________________________
dense (Dense)                (None, 32)                8224      
_________________________________________________________________
dropout_1 (Dropout)          (None, 32)                0         
_________________________________________________________________
dense_1 (Dense)              (None, 7)                 231       
=================================================================
Total params: 284,935
Trainable params: 284,935
Non-trainable params: 0
_________________________________________________________________
Epoch 1/80
17/17 - 2s - loss: 2.1900 - accuracy: 0.1445 - val_loss: 1.9404 - val_accuracy: 0.2167
Epoch 2/80
17/17 - 0s - loss: 2.0635 - accuracy: 0.1932 - val_loss: 1.8945 - val_accuracy: 0.2500
…
