
EXECUTION PARAMETERS: {NUMBER OF FOLDERS:  10 }-{NUMBER OF EPOCHS:  80 }-{NUMBER OF ROUTINE ITERATIONS:  30 }-{BATCH SIZE :  32 }-{SIGNAL MODE:  fp }-{AUGMENT: Sad }-{FEATURES:  mfcc }-{EMOTIONS: ('Sad', 'Happy', 'Angry', 'Neutral', 'Fear') }

####ITERATION NUMBER:  1

#####FOLDER NUMBER: 1
Starting LSTM
Model: "sequential"
_________________________________________________________________
Layer (type)                 Output Shape              Param #   
=================================================================
masking (Masking)            (None, 443, 13)           0         
_________________________________________________________________
lstm (LSTM)                  (None, 256)               276480    
_________________________________________________________________
dropout (Dropout)            (None, 256)               0         
_________________________________________________________________
dense (Dense)                (None, 32)                8224      
_________________________________________________________________
dropout_1 (Dropout)          (None, 32)                0         
_________________________________________________________________
dense_1 (Dense)              (None, 5)                 165       
=================================================================
Total params: 284,869
Trainable params: 284,869
Non-trainable params: 0
_________________________________________________________________
Epoch 1/80
12/12 - 2s - loss: 1.9101 - accuracy: 0.2122 - val_loss: 1.4748 - val_accuracy: 0.4286
Epoch 2/80
12/12 - 0s - loss: 1.6413 - accuracy: 0.3130 - val_loss: 1.4339 - val_accuracy: 0.3810
…
