
EXECUTION PARAMETERS: {NUMBER OF FOLDERS:  10 }-{NUMBER OF EPOCHS:  80 }-{NUMBER OF ROUTINE ITERATIONS:  30 }-{BATCH SIZE :  32 }-{SIGNAL MODE:  fp }-{AUGMENT: Positive }-{FEATURES:  mfcc }-{EMOTIONS: ('Positive', 'Negative') }

####ITERATION NUMBER:  1

#####FOLDER NUMBER: 1
Starting LSTM
Model: "sequential"
_________________________________________________________________
Layer (type)                 Output Shape              Param #   
=================================================================
masking (Masking)            (None, 465, 13)           0         
_________________________________________________________________
lstm (LSTM)                  (None, 256)               276480    
_________________________________________________________________
dropout (Dropout)            (None, 256)               0         
_________________________________________________________________
dense (Dense)                (None, 32)                8224      
_________________________________________________________________
dropout_1 (Dropout)          (None, 32)                0         
_________________________________________________________________
dense_1 (Dense)              (None, 2)                 66        
=================================================================
Total params: 284,770
Trainable params: 284,770
Non-trainable params: 0
_________________________________________________________________
Epoch 1/80
17/17 - 2s - loss: 0.8551 - accuracy: 0.5198 - val_loss: 0.8182 - val_accuracy: 0.5763
Epoch 2/80
17/17 - 0s - loss: 0.8848 - accuracy: 0.5614 - val_loss: 0.7345 - val_accuracy: 0.4407
…
