
EXECUTION PARAMETERS: {NUMBER OF FOLDERS:  10 }-{NUMBER OF EPOCHS:  80 }-{NUMBER OF ROUTINE ITERATIONS:  30 }-{BATCH SIZE :  32 }-{SIGNAL MODE:  fp }-{AUGMENT: Happy }-{FEATURES:  mfcc }-{EMOTIONS: ('Happy', 'Sad', 'Angry', 'Neutral') }

####ITERATION NUMBER:  1

#####FOLDER NUMBER: 1
Starting LSTM
Model: "sequential"
_________________________________________________________________
Layer (type)                 Output Shape              Param #   
=================================================================
masking (Masking)            (None, 443, 13)           0         
_________________________________________________________________
bidirectional (Bidirectional (None, 443, 512)          552960    
_________________________________________________________________
dropout (Dropout)            (None, 443, 512)          0         
_________________________________________________________________
bidirectional_1 (Bidirection (None, 256)               656384    
_________________________________________________________________
dropout_1 (Dropout)          (None, 256)               0         
_________________________________________________________________
dense (Dense)                (None, 32)                8224      
_________________________________________________________________
dropout_2 (Dropout)          (None, 32)                0         
_________________________________________________________________
dense_1 (Dense)              (None, 4)                 132       
=================================================================
Total params: 1,217,700
Trainable params: 1,217,700
Non-trainable params: 0
_________________________________________________________________
Epoch 1/80
10/10 - 5s - loss: 1.5673 - accuracy: 0.2483 - val_loss: 1.2237 - val_accuracy: 0.4412
Epoch 2/80
10/10 - 1s - loss: 1.2708 - accuracy: 0.4238 - val_loss: 1.1070 - val_accuracy: 0.5882
…
