
EXECUTION PARAMETERS: {NUMBER OF FOLDERS:  10 }-{NUMBER OF EPOCHS:  80 }-{NUMBER OF ROUTINE ITERATIONS:  1 }-{BATCH SIZE :  32 }-{SIGNAL MODE:  fp }-{AUGMENT: Sad }-{FEATURES:  ('mfcc', 'intensity', 'pitch') }-{EMOTIONS: ('Sad', 'Happy', 'Angry', 'Neutral') }

####ITERATION NUMBER:  1

#####FOLDER NUMBER: 1
Starting LSTM
Model: "sequential"
_________________________________________________________________
Layer (type)                 Output Shape              Param #   
=================================================================
masking (Masking)            (None, 443, 15)           0         
_________________________________________________________________
lstm (LSTM)                  (None, 443, 128)          73728     
_________________________________________________________________
dropout (Dropout)            (None, 443, 128)          0         
_________________________________________________________________
lstm_1 (LSTM)                (None, 64)                49408     
_________________________________________________________________
dropout_1 (Dropout)          (None, 64)                0         
_________________________________________________________________
dense (Dense)                (None, 32)                2080      
_________________________________________________________________
dense_1 (Dense)              (None, 4)                 132       
=================================================================
Total params: 125,348
Trainable params: 125,348
Non-trainable params: 0
_________________________________________________________________
Epoch 1/80
10/10 - 2s - loss: 1.4117 - accuracy: 0.2583 - val_loss: 1.2510 - val_accuracy: 0.5000
Epoch 2/80
10/10 - 0s - loss: 1.2339 - accuracy: 0.4007 - val_loss: 1.1879 - val_accuracy: 0.5294
…
