
EXECUTION PARAMETERS: {NUMBER OF FOLDERS:  10 }-{NUMBER OF EPOCHS:  80 }-{NUMBER OF ROUTINE ITERATIONS:  1 }-{BATCH SIZE :  32 }-{SIGNAL MODE:  fp }-{AUGMENT: Sad }-{FEATURES:  ('mfcc', 'deltas', 'lpcc', 'formants') }-{EMOTIONS: ('Sad', 'Happy', 'Angry', 'Neutral') }

####ITERATION NUMBER:  1

#####FOLDER NUMBER: 1
Starting LSTM
Model: "sequential"
_________________________________________________________________
Layer (type)                 Output Shape              Param #   
=================================================================
masking (Masking)            (None, 443, 29)           0         
_________________________________________________________________
lstm (LSTM)                  (None, 443, 128)          80896     
_________________________________________________________________
dropout (Dropout)            (None, 443, 128)          0         
_________________________________________________________________
lstm_1 (LSTM)                (None, 64)                49408     
_________________________________________________________________
dropout_1 (Dropout)          (None, 64)                0         
_________________________________________________________________
dense (Dense)                (None, 32)                2080      
_________________________________________________________________
dense_1 (Dense)              (None, 4)                 132       
=================================================================
Total params: 132,516
Trainable params: 132,516
Non-trainable params: 0
_________________________________________________________________
Epoch 1/80
10/10 - 3s - loss: 1.3899 - accuracy: 0.3113 - val_loss: 1.2124 - val_accuracy: 0.6471
Epoch 2/80
10/10 - 0s - loss: 1.2454 - accuracy: 0.4437 - val_loss: 1.0650 - val_accuracy: 0.6471
…
