
EXECUTION PARAMETERS: {NUMBER OF FOLDERS:  10 }-{NUMBER OF EPOCHS:  80 }-{NUMBER OF ROUTINE ITERATIONS:  1 }-{BATCH SIZE :  32 }-{SIGNAL MODE:  fp }-{AUGMENT: Sad }-{FEATURES:  ('mfcc', 'lpcc', 'intensity', 'pitch') }-{EMOTIONS: ('Sad', 'Happy', 'Angry', 'Neutral') }

####ITERATION NUMBER:  1

#####FOLDER NUMBER: 1
Starting LSTM
Model: "sequential"
_________________________________________________________________
Layer (type)                 Output Shape              Param #   
=================================================================
masking (Masking)            (None, 443, 28)           0         
_________________________________________________________________
lstm (LSTM)                  (None, 443, 128)          80384     
_________________________________________________________________
dropout (Dropout)            (None, 443, 128)          0         
_________________________________________________________________
lstm_1 (LSTM)                (None, 64)                49408     
_________________________________________________________________
dropout_1 (Dropout)          (None, 64)                0         
_________________________________________________________________
dense (Dense)                (None, 32)                2080      
_________________________________________________________________
dense_1 (Dense)              (None, 4)                 132       
=================================================================
Total params: 132,004
Trainable params: 132,004
Non-trainable params: 0
_________________________________________________________________
Epoch 1/80
10/10 - 3s - loss: 1.4439 - accuracy: 0.2483 - val_loss: 1.3427 - val_accuracy: 0.3529
Epoch 2/80
10/10 - 0s - loss: 1.3055 - accuracy: 0.3974 - val_loss: 1.2425 - val_accuracy: 0.4412
…
