
EXECUTION PARAMETERS: {NUMBER OF FOLDERS:  10 }-{NUMBER OF EPOCHS:  80 }-{NUMBER OF ROUTINE ITERATIONS:  1 }-{BATCH SIZE :  32 }-{SIGNAL MODE:  fp }-{AUGMENT: Sad }-{FEATURES:  mfcc }-{EMOTIONS: ('Sad', 'Happy', 'Angry', 'Neutral') }

####ITERATION NUMBER:  1

#####FOLDER NUMBER: 1
Starting LSTM
Model: "sequential"
_________________________________________________________________
Layer (type)                 Output Shape              Param #   
=================================================================
masking (Masking)            (None, 443, 13)           0         
_________________________________________________________________
lstm (LSTM)                  (None, 443, 128)          72704     
_________________________________________________________________
dropout (Dropout)            (None, 443, 128)          0         
_________________________________________________________________
lstm_1 (LSTM)                (None, 64)                49408     
_________________________________________________________________
dropout_1 (Dropout)          (None, 64)                0         
_________________________________________________________________
dense (Dense)                (None, 64)                4160      
_________________________________________________________________
dense_1 (Dense)              (None, 4)                 260       
=================================================================
Total params: 126,532
Trainable params: 126,532
Non-trainable params: 0
_________________________________________________________________
Epoch 1/80
10/10 - 2s - loss: 1.4387 - accuracy: 0.2914 - val_loss: 1.2112 - val_accuracy: 0.5294
Epoch 2/80
10/10 - 0s - loss: 1.2702 - accuracy: 0.3974 - val_loss: 1.0809 - val_accuracy: 0.5294
…
