
EXECUTION PARAMETERS: {NUMBER OF FOLDERS:  10 }-{NUMBER OF EPOCHS:  80 }-{NUMBER OF ROUTINE ITERATIONS:  1 }-{BATCH SIZE :  32 }-{SIGNAL MODE:  fp }-{AUGMENT: Sad }-{FEATURES:  mfcc }-{EMOTIONS: ('Sad', 'Happy', 'Angry', 'Neutral') }

####ITERATION NUMBER:  1

#####FOLDER NUMBER: 1
Starting LSTM
Model: "sequential"
_________________________________________________________________
Layer (type)                 Output Shape              Param #   
=================================================================
masking (Masking)            (None, 443, 13)           0         
_________________________________________________________________
lstm (LSTM)                  (None, 443, 256)          276480    
_________________________________________________________________
dropout (Dropout)            (None, 443, 256)          0         
_________________________________________________________________
lstm_1 (LSTM)                (None, 443, 128)          197120    
_________________________________________________________________
dropout_1 (Dropout)          (None, 443, 128)          0         
_________________________________________________________________
lstm_2 (LSTM)                (None, 64)                49408     
_________________________________________________________________
dropout_2 (Dropout)          (None, 64)                0         
_________________________________________________________________
dense (Dense)                (None, 32)                2080      
_________________________________________________________________
dropout_3 (Dropout)          (None, 32)                0         
_________________________________________________________________
dense_1 (Dense)              (None, 4)                 132       
=================================================================
Total params: 525,220
Trainable params: 525,220
Non-trainable params: 0
_________________________________________________________________
Epoch 1/80
10/10 - 3s - loss: 1.4189 - accuracy: 0.2980 - val_loss: 1.2174 - val_accuracy: 0.3529
Epoch 2/80
10/10 - 1s - loss: 1.2901 - accuracy: 0.4040 - val_loss: 1.1474 - val_accuracy: 0.4412
…
