
EXECUTION PARAMETERS: {NUMBER OF FOLDERS:  10 }-{NUMBER OF EPOCHS:  80 }-{NUMBER OF ROUTINE ITERATIONS:  1 }-{BATCH SIZE :  32 }-{SIGNAL MODE:  fp }-{AUGMENT: Sad }-{FEATURES:  mfcc }-{EMOTIONS: ('Sad', 'Happy', 'Angry', 'Neutral') }

####ITERATION NUMBER:  1

#####FOLDER NUMBER: 1
Starting LSTM
Model: "sequential"
_________________________________________________________________
Layer (type)                 Output Shape              Param #   
=================================================================
masking (Masking)            (None, 443, 13)           0         
_________________________________________________________________
lstm (LSTM)                  (None, 443, 256)          276480    
_________________________________________________________________
dropout (Dropout)            (None, 443, 256)          0         
_________________________________________________________________
lstm_1 (LSTM)                (None, 443, 128)          197120    
_________________________________________________________________
dropout_1 (Dropout)          (None, 443, 128)          0         
_________________________________________________________________
lstm_2 (LSTM)                (None, 64)                49408     
_________________________________________________________________
dense (Dense)                (None, 4)                 260       
=================================================================
Total params: 523,268
Trainable params: 523,268
Non-trainable params: 0
_________________________________________________________________
Epoch 1/80
10/10 - 3s - loss: 1.3135 - accuracy: 0.3278 - val_loss: 1.0934 - val_accuracy: 0.5882
Epoch 2/80
10/10 - 1s - loss: 1.0925 - accuracy: 0.5265 - val_loss: 1.2799 - val_accuracy: 0.4706
…
