
EXECUTION PARAMETERS: {NUMBER OF FOLDERS:  10 }-{NUMBER OF EPOCHS:  80 }-{NUMBER OF ROUTINE ITERATIONS:  1 }-{BATCH SIZE :  32 }-{SIGNAL MODE:  fp }-{AUGMENT: Sad }-{FEATURES:  mfcc }-{EMOTIONS: ('Sad', 'Happy', 'Angry', 'Neutral') }

####ITERATION NUMBER:  1

#####FOLDER NUMBER: 1
Starting LSTM
Model: "sequential"
_________________________________________________________________
Layer (type)                 Output Shape              Param #   
=================================================================
masking (Masking)            (None, 443, 13)           0         
_________________________________________________________________
lstm (LSTM)                  (None, 443, 128)          72704     
_________________________________________________________________
dropout (Dropout)            (None, 443, 128)          0         
_________________________________________________________________
lstm_1 (LSTM)                (None, 443, 64)           49408     
_________________________________________________________________
dropout_1 (Dropout)          (None, 443, 64)           0         
_________________________________________________________________
lstm_2 (LSTM)                (None, 32)                12416     
_________________________________________________________________
dropout_2 (Dropout)          (None, 32)                0         
_________________________________________________________________
dense (Dense)                (None, 4)                 132       
=================================================================
Total params: 134,660
Trainable params: 134,660
Non-trainable params: 0
_________________________________________________________________
Epoch 1/80
10/10 - 6s - loss: 1.3594 - accuracy: 0.3278 - val_loss: 1.2496 - val_accuracy: 0.5000
Epoch 2/80
10/10 - 2s - loss: 1.2550 - accuracy: 0.3974 - val_loss: 1.1419 - val_accuracy: 0.4412
…
