…
  0%|          | 0/84 [00:00<?, ?it/s] 24%|???       | 20/84 [00:00<00:00, 196.25it/s] 49%|?????     | 41/84 [00:00<00:00, 199.66it/s] 74%|????????  | 62/84 [00:00<00:00, 202.12it/s]100%|??????????| 84/84 [00:00<00:00, 204.91it/s]100%|??????????| 84/84 [00:00<00:00, 206.06it/s]
ended reading folder Neutral

EXECUTION PARAMETERS: {NUMBER OF FOLDERS:  5 }-{NUMBER OF EPOCHS:  80 }-{NUMBER OF ROUTINE ITERATIONS:  1 }-{BATCH SIZE :  32 }-{SIGNAL MODE:  fp }-{AUGMENT: Sad }-{FEATURES:  mfcc }-{EMOTIONS: ('Sad', 'Happy', 'Angry', 'Neutral') }

####ITERATION NUMBER:  1

#####FOLDER NUMBER: 1
Starting LSTM
Model: "sequential"
_________________________________________________________________
Layer (type)                 Output Shape              Param #   
=================================================================
masking (Masking)            (None, 44, 13)            0         
_________________________________________________________________
lstm (LSTM)                  (None, 44, 128)           72704     
_________________________________________________________________
dropout (Dropout)            (None, 44, 128)           0         
_________________________________________________________________
lstm_1 (LSTM)                (None, 64)                49408     
_________________________________________________________________
dropout_1 (Dropout)          (None, 64)                0         
_________________________________________________________________
dense (Dense)                (None, 64)                4160      
_________________________________________________________________
dropout_2 (Dropout)          (None, 64)                0         
_________________________________________________________________
dense_1 (Dense)              (None, 4)                 260       
=================================================================
Total params: 126,532
Trainable params: 126,532
Non-trainable params: 0
_________________________________________________________________
None
Epoch 1/80
9/9 - 7s - loss: 1.4846 - accuracy: 0.2500 - val_loss: 1.2622 - val_accuracy: 0.3824
Epoch 2/80
9/9 - 1s - loss: 1.3183 - accuracy: 0.3209 - val_loss: 1.1131 - val_accuracy: 0.5735
…
