…
  0%|          | 0/84 [00:00<?, ?it/s] 23%|???       | 19/84 [00:00<00:00, 182.64it/s] 46%|?????     | 39/84 [00:00<00:00, 184.97it/s] 71%|????????  | 60/84 [00:00<00:00, 191.35it/s] 98%|??????????| 82/84 [00:00<00:00, 197.57it/s]100%|??????????| 84/84 [00:00<00:00, 198.70it/s]
ended reading folder Neutral

EXECUTION PARAMETERS: {NUMBER OF FOLDERS:  5 }-{NUMBER OF EPOCHS:  80 }-{NUMBER OF ROUTINE ITERATIONS:  1 }-{BATCH SIZE :  32 }-{SIGNAL MODE:  fp }-{AUGMENT: Sad }-{FEATURES:  mfcc }-{EMOTIONS: ('Sad', 'Happy', 'Angry', 'Neutral') }

####ITERATION NUMBER:  1

#####FOLDER NUMBER: 1
Starting LSTM
None
Model: "sequential"
_________________________________________________________________
Layer (type)                 Output Shape              Param #   
=================================================================
masking (Masking)            (None, 44, 13)            0         
_________________________________________________________________
lstm (LSTM)                  (None, 44, 128)           72704     
_________________________________________________________________
dropout (Dropout)            (None, 44, 128)           0         
_________________________________________________________________
lstm_1 (LSTM)                (None, 64)                49408     
_________________________________________________________________
dropout_1 (Dropout)          (None, 64)                0         
_________________________________________________________________
dense (Dense)                (None, 32)                2080      
_________________________________________________________________
dropout_2 (Dropout)          (None, 32)                0         
_________________________________________________________________
dense_1 (Dense)              (None, 4)                 132       
=================================================================
Total params: 124,324
Trainable params: 124,324
Non-trainable params: 0
_________________________________________________________________
Epoch 1/80
9/9 - 4s - loss: 1.4761 - accuracy: 0.2799 - val_loss: 1.2955 - val_accuracy: 0.3824
Epoch 2/80
9/9 - 1s - loss: 1.3203 - accuracy: 0.3731 - val_loss: 1.1421 - val_accuracy: 0.6029
…
