…
ended reading folder Angry
started reading folder Neutral
  0%|          | 0/84 [00:00<?, ?it/s] 19%|??        | 16/84 [00:00<00:00, 155.47it/s] 38%|????      | 32/84 [00:00<00:00, 155.47it/s] 58%|??????    | 49/84 [00:00<00:00, 154.81it/s] 81%|????????  | 68/84 [00:00<00:00, 163.11it/s]100%|??????????| 84/84 [00:00<00:00, 164.52it/s]
ended reading folder Neutral
None
Model: "sequential"
_________________________________________________________________
Layer (type)                 Output Shape              Param #   
=================================================================
masking (Masking)            (None, 44, 13)            0         
_________________________________________________________________
lstm (LSTM)                  (None, 44, 256)           276480    
_________________________________________________________________
dropout (Dropout)            (None, 44, 256)           0         
_________________________________________________________________
lstm_1 (LSTM)                (None, 44, 128)           197120    
_________________________________________________________________
dropout_1 (Dropout)          (None, 44, 128)           0         
_________________________________________________________________
lstm_2 (LSTM)                (None, 64)                49408     
_________________________________________________________________
dropout_2 (Dropout)          (None, 64)                0         
_________________________________________________________________
dense (Dense)                (None, 32)                2080      
_________________________________________________________________
dropout_3 (Dropout)          (None, 32)                0         
_________________________________________________________________
dense_1 (Dense)              (None, 4)                 132       
=================================================================
Total params: 525,220
Trainable params: 525,220
Non-trainable params: 0
_________________________________________________________________
Epoch 1/80
9/9 - 16s - loss: 1.4039 - accuracy: 0.3358 - val_loss: 1.2033 - val_accuracy: 0.3529
Epoch 2/80
9/9 - 4s - loss: 1.2096 - accuracy: 0.4328 - val_loss: 1.0591 - val_accuracy: 0.5588
…
