…
  0%|          | 0/84 [00:00<?, ?it/s] 25%|???       | 21/84 [00:00<00:00, 208.10it/s] 50%|?????     | 42/84 [00:00<00:00, 205.05it/s] 74%|????????  | 62/84 [00:00<00:00, 202.94it/s] 96%|??????????| 81/84 [00:00<00:00, 197.08it/s]100%|??????????| 84/84 [00:00<00:00, 196.43it/s]
ended reading folder Neutral

EXECUTION PARAMETERS: {NUMBER OF FOLDERS:  5 }-{NUMBER OF EPOCHS:  80 }-{NUMBER OF ROUTINE ITERATIONS:  1 }-{BATCH SIZE :  32 }-{SIGNAL MODE:  fp }-{AUGMENT: Sad }-{FEATURES:  mfcc }-{EMOTIONS: ('Sad', 'Happy', 'Angry', 'Neutral') }

####ITERATION NUMBER:  1

#####FOLDER NUMBER: 1
Starting LSTM
Model: "sequential"
_________________________________________________________________
Layer (type)                 Output Shape              Param #   
=================================================================
masking (Masking)            (None, 44, 13)            0         
_________________________________________________________________
lstm (LSTM)                  (None, 44, 256)           276480    
_________________________________________________________________
dropout (Dropout)            (None, 44, 256)           0         
_________________________________________________________________
lstm_1 (LSTM)                (None, 128)               197120    
_________________________________________________________________
dropout_1 (Dropout)          (None, 128)               0         
_________________________________________________________________
dense (Dense)                (None, 128)               16512     
_________________________________________________________________
dropout_2 (Dropout)          (None, 128)               0         
_________________________________________________________________
dense_1 (Dense)              (None, 4)                 516       
=================================================================
Total params: 490,628
Trainable params: 490,628
Non-trainable params: 0
_________________________________________________________________
None
Epoch 1/80
9/9 - 5s - loss: 1.4483 - accuracy: 0.3284 - val_loss: 1.2100 - val_accuracy: 0.5882
Epoch 2/80
9/9 - 2s - loss: 1.2645 - accuracy: 0.3993 - val_loss: 1.1894 - val_accuracy: 0.3824
…
