…
EXECUTION PARAMETERS: {NUMBER OF FOLDERS:  5 }-{NUMBER OF EPOCHS:  80 }-{NUMBER OF ROUTINE ITERATIONS:  1 }-{BATCH SIZE :  32 }-{SIGNAL MODE:  fp }-{AUGMENT: Sad }-{FEATURES:  mfcc }-{EMOTIONS: ('Sad', 'Happy', 'Angry', 'Neutral') }

####ITERATION NUMBER:  1

#####FOLDER NUMBER: 1
Starting LSTM
 71%|????????  | 60/84 [00:00<00:00, 190.06it/s] 89%|????????? | 75/84 [00:00<00:00, 172.38it/s]100%|??????????| 84/84 [00:00<00:00, 173.34it/s]
ended reading folder Neutral
Model: "sequential"
_________________________________________________________________
Layer (type)                 Output Shape              Param #   
=================================================================
masking (Masking)            (None, 44, 13)            0         
_________________________________________________________________
lstm (LSTM)                  (None, 44, 256)           276480    
_________________________________________________________________
dropout (Dropout)            (None, 44, 256)           0         
_________________________________________________________________
lstm_1 (LSTM)                (None, 128)               197120    
_________________________________________________________________
dropout_1 (Dropout)          (None, 128)               0         
_________________________________________________________________
dense (Dense)                (None, 64)                8256      
_________________________________________________________________
dropout_2 (Dropout)          (None, 64)                0         
_________________________________________________________________
dense_1 (Dense)              (None, 4)                 260       
=================================================================
Total params: 482,116
Trainable params: 482,116
Non-trainable params: 0
_________________________________________________________________
None
Epoch 1/80
9/9 - 5s - loss: 1.4650 - accuracy: 0.2724 - val_loss: 1.2191 - val_accuracy: 0.3676
Epoch 2/80
9/9 - 3s - loss: 1.3316 - accuracy: 0.3582 - val_loss: 1.1297 - val_accuracy: 0.3971
…
