…
ended reading folder Angry
started reading folder Neutral
  0%|          | 0/84 [00:00<?, ?it/s] 24%|???       | 20/84 [00:00<00:00, 196.25it/s] 49%|?????     | 41/84 [00:00<00:00, 197.41it/s] 71%|????????  | 60/84 [00:00<00:00, 193.98it/s] 95%|??????????| 80/84 [00:00<00:00, 194.66it/s]100%|??????????| 84/84 [00:00<00:00, 194.16it/s]
ended reading folder Neutral
None
Model: "sequential"
_________________________________________________________________
Layer (type)                 Output Shape              Param #   
=================================================================
masking (Masking)            (None, 44, 13)            0         
_________________________________________________________________
lstm (LSTM)                  (None, 44, 256)           276480    
_________________________________________________________________
dropout (Dropout)            (None, 44, 256)           0         
_________________________________________________________________
lstm_1 (LSTM)                (None, 44, 128)           197120    
_________________________________________________________________
dropout_1 (Dropout)          (None, 44, 128)           0         
_________________________________________________________________
lstm_2 (LSTM)                (None, 64)                49408     
_________________________________________________________________
dropout_2 (Dropout)          (None, 64)                0         
_________________________________________________________________
dense (Dense)                (None, 4)                 260       
=================================================================
Total params: 523,268
Trainable params: 523,268
Non-trainable params: 0
_________________________________________________________________
Epoch 1/80
9/9 - 15s - loss: 1.3115 - accuracy: 0.3806 - val_loss: 1.2068 - val_accuracy: 0.3824
Epoch 2/80
9/9 - 3s - loss: 1.1663 - accuracy: 0.4590 - val_loss: 1.1557 - val_accuracy: 0.4559
…
