
EXECUTION PARAMETERS: {NUMBER OF FOLDERS:  10 }-{NUMBER OF EPOCHS:  80 }-{NUMBER OF ROUTINE ITERATIONS:  30 }-{BATCH SIZE :  32 }-{SIGNAL MODE:  fp }-{AUGMENT: Sad }-{FEATURES:  ('mfcc', 'lpcc', 'intensity') }-{EMOTIONS: ('Sad', 'Happy', 'Angry', 'Neutral') }

####ITERATION NUMBER:  1

#####FOLDER NUMBER: 1
Starting LSTM
Model: "sequential"
_________________________________________________________________
Layer (type)                 Output Shape              Param #   
=================================================================
masking (Masking)            (None, 443, 27)           0         
_________________________________________________________________
bidirectional (Bidirectional (None, 443, 256)          159744    
_________________________________________________________________
dropout (Dropout)            (None, 443, 256)          0         
_________________________________________________________________
bidirectional_1 (Bidirection (None, 128)               164352    
_________________________________________________________________
dropout_1 (Dropout)          (None, 128)               0         
_________________________________________________________________
dense (Dense)                (None, 32)                4128      
_________________________________________________________________
dense_1 (Dense)              (None, 4)                 132       
=================================================================
Total params: 328,356
Trainable params: 328,356
Non-trainable params: 0
_________________________________________________________________
Epoch 1/80
10/10 - 5s - loss: 1.4354 - accuracy: 0.3113 - val_loss: 1.2294 - val_accuracy: 0.4412
Epoch 2/80
10/10 - 1s - loss: 1.1915 - accuracy: 0.4834 - val_loss: 1.1526 - val_accuracy: 0.4706
…
