
EXECUTION PARAMETERS: {NUMBER OF FOLDERS:  10 }-{NUMBER OF EPOCHS:  80 }-{NUMBER OF ROUTINE ITERATIONS:  1 }-{BATCH SIZE :  32 }-{SIGNAL MODE:  fp }-{AUGMENT: Sad }-{FEATURES:  mfcc }-{EMOTIONS: ('Sad', 'Happy', 'Angry', 'Neutral') }

####ITERATION NUMBER:  1

#####FOLDER NUMBER: 1
Starting LSTM
Model: "sequential"
_________________________________________________________________
Layer (type)                 Output Shape              Param #   
=================================================================
masking (Masking)            (None, 44, 13)            0         
_________________________________________________________________
lstm (LSTM)                  (None, 44, 256)           276480    
_________________________________________________________________
lstm_1 (LSTM)                (None, 44, 128)           197120    
_________________________________________________________________
lstm_2 (LSTM)                (None, 64)                49408     
_________________________________________________________________
dense (Dense)                (None, 64)                4160      
_________________________________________________________________
dense_1 (Dense)              (None, 4)                 260       
=================================================================
Total params: 527,428
Trainable params: 527,428
Non-trainable params: 0
_________________________________________________________________
Epoch 1/80
10/10 - 7s - loss: 1.2918 - accuracy: 0.3775 - val_loss: 1.2132 - val_accuracy: 0.4118
Epoch 2/80
10/10 - 2s - loss: 1.1106 - accuracy: 0.5033 - val_loss: 1.0960 - val_accuracy: 0.5588
…
