
EXECUTION PARAMETERS: {NUMBER OF FOLDERS:  5 }-{NUMBER OF EPOCHS:  80 }-{NUMBER OF ROUTINE ITERATIONS:  50 }-{BATCH SIZE :  32 }-{SIGNAL MODE:  fp }-{AUGMENT: Sad }-{FEATURES:  mfcc }-{EMOTIONS: ('Sad', 'Happy', 'Angry', 'Neutral') }

####ITERATION NUMBER:  1

#####FOLDER NUMBER: 1
Starting LSTM
Model: "sequential"
_________________________________________________________________
Layer (type)                 Output Shape              Param #   
=================================================================
masking (Masking)            (None, 44, 13)            0         
_________________________________________________________________
lstm (LSTM)                  (None, 44, 256)           276480    
_________________________________________________________________
dropout (Dropout)            (None, 44, 256)           0         
_________________________________________________________________
lstm_1 (LSTM)                (None, 44, 128)           197120    
_________________________________________________________________
dropout_1 (Dropout)          (None, 44, 128)           0         
_________________________________________________________________
lstm_2 (LSTM)                (None, 64)                49408     
_________________________________________________________________
dense (Dense)                (None, 4)                 260       
=================================================================
Total params: 523,268
Trainable params: 523,268
Non-trainable params: 0
_________________________________________________________________
Epoch 1/80
9/9 - 3s - loss: 1.3070 - accuracy: 0.3470 - val_loss: 1.0874 - val_accuracy: 0.4412
Epoch 2/80
9/9 - 0s - loss: 1.1285 - accuracy: 0.4627 - val_loss: 1.0148 - val_accuracy: 0.5588
…
