
EXECUTION PARAMETERS: {NUMBER OF FOLDERS:  10 }-{NUMBER OF EPOCHS:  80 }-{NUMBER OF ROUTINE ITERATIONS:  30 }-{BATCH SIZE :  32 }-{SIGNAL MODE:  fp }-{AUGMENT: Sad2 }-{FEATURES:  mfcc }-{EMOTIONS: ('Sad2', 'Happy2', 'Angry2', 'Neutral2') }

####ITERATION NUMBER:  1

#####FOLDER NUMBER: 1
Starting LSTM
Model: "sequential"
_________________________________________________________________
Layer (type)                 Output Shape              Param #   
=================================================================
masking (Masking)            (None, 443, 13)           0         
_________________________________________________________________
lstm (LSTM)                  (None, 256)               276480    
_________________________________________________________________
dropout (Dropout)            (None, 256)               0         
_________________________________________________________________
dense (Dense)                (None, 32)                8224      
_________________________________________________________________
dropout_1 (Dropout)          (None, 32)                0         
_________________________________________________________________
dense_1 (Dense)              (None, 4)                 132       
=================================================================
Total params: 284,836
Trainable params: 284,836
Non-trainable params: 0
_________________________________________________________________
Epoch 1/80
29/29 - 2s - loss: 1.5357 - accuracy: 0.3275 - val_loss: 1.3324 - val_accuracy: 0.3861
Epoch 2/80
29/29 - 1s - loss: 1.3554 - accuracy: 0.4223 - val_loss: 1.1896 - val_accuracy: 0.4554
…
