
EXECUTION PARAMETERS: {NUMBER OF FOLDERS:  10 }-{NUMBER OF EPOCHS:  80 }-{NUMBER OF ROUTINE ITERATIONS:  1 }-{BATCH SIZE :  32 }-{SIGNAL MODE:  fp }-{AUGMENT: Sad }-{FEATURES:  ('mfcc', 'lpcc', 'formants', 'intensity', 'pitch') }-{EMOTIONS: ('Sad', 'Happy', 'Angry', 'Neutral') }

####ITERATION NUMBER:  1

#####FOLDER NUMBER: 1
Starting LSTM
Model: "sequential"
_________________________________________________________________
Layer (type)                 Output Shape              Param #   
=================================================================
masking (Masking)            (None, 443, 31)           0         
_________________________________________________________________
lstm (LSTM)                  (None, 443, 256)          294912    
_________________________________________________________________
dropout (Dropout)            (None, 443, 256)          0         
_________________________________________________________________
lstm_1 (LSTM)                (None, 128)               197120    
_________________________________________________________________
dropout_1 (Dropout)          (None, 128)               0         
_________________________________________________________________
dense (Dense)                (None, 32)                4128      
_________________________________________________________________
dropout_2 (Dropout)          (None, 32)                0         
_________________________________________________________________
dense_1 (Dense)              (None, 4)                 132       
=================================================================
Total params: 496,292
Trainable params: 496,292
Non-trainable params: 0
_________________________________________________________________
Epoch 1/80
10/10 - 2s - loss: 1.4696 - accuracy: 0.2848 - val_loss: 1.1854 - val_accuracy: 0.4706
Epoch 2/80
10/10 - 0s - loss: 1.3024 - accuracy: 0.3808 - val_loss: 1.0370 - val_accuracy: 0.5882
…
