…
#####FOLDER NUMBER: 1
Starting LSTM
2020-09-20 15:38:55.533603: I tensorflow/compiler/xla/service/service.cc:168] XLA service 0x29997556bc0 initialized for platform Host (this does not guarantee that XLA will be used). Devices:
2020-09-20 15:38:55.533850: I tensorflow/compiler/xla/service/service.cc:176]   StreamExecutor device (0): Host, Default Version
None
Model: "sequential"
_________________________________________________________________
Layer (type)                 Output Shape              Param #   
=================================================================
masking (Masking)            (None, 44, 13)            0         
_________________________________________________________________
lstm (LSTM)                  (None, 256)               276480    
_________________________________________________________________
dropout (Dropout)            (None, 256)               0         
_________________________________________________________________
dense (Dense)                (None, 32)                8224      
_________________________________________________________________
dense_1 (Dense)              (None, 4)                 132       
=================================================================
Total params: 284,836
Trainable params: 284,836
Non-trainable params: 0
_________________________________________________________________
