…
To enable them in other operations, rebuild TensorFlow with the appropriate compiler flags.
2020-09-17 10:43:29.064514: I tensorflow/compiler/xla/service/service.cc:168] XLA service 0x264555ac3f0 initialized for platform Host (this does not guarantee that XLA will be used). Devices:
2020-09-17 10:43:29.064722: I tensorflow/compiler/xla/service/service.cc:176]   StreamExecutor device (0): Host, Default Version
None
Model: "sequential"
_________________________________________________________________
Layer (type)                 Output Shape              Param #   
=================================================================
masking (Masking)            (None, 438, 1)            0         
_________________________________________________________________
lstm (LSTM)                  (None, 438, 128)          66560     
_________________________________________________________________
dropout (Dropout)            (None, 438, 128)          0         
_________________________________________________________________
lstm_1 (LSTM)                (None, 64)                49408     
_________________________________________________________________
dropout_1 (Dropout)          (None, 64)                0         
_________________________________________________________________
dense (Dense)                (None, 32)                2080      
_________________________________________________________________
dense_1 (Dense)              (None, 4)                 132       
=================================================================
Total params: 118,180
Trainable params: 118,180
Non-trainable params: 0
_________________________________________________________________
Epoch 1/80
1/9 [==>...........................] - ETA: 0s - loss: 1.3863 - accuracy: 0.25002/9 [=====>....
…
