…
2020-09-17 11:17:22.000886: I tensorflow/stream_executor/cuda/cuda_diagnostics.cc:176] hostname: DESKTOP-OVHAIFS
2020-09-17 11:17:22.008736: I tensorflow/compiler/xla/service/service.cc:168] XLA service 0x209531d5ef0 initialized for platform Host (this does not guarantee that XLA will be used). Devices:
2020-09-17 11:17:22.009078: I tensorflow/compiler/xla/service/service.cc:176]   StreamExecutor device (0): Host, Default Version
None
Model: "sequential"
_________________________________________________________________
Layer (type)                 Output Shape              Param #   
=================================================================
masking (Masking)            (None, 222, 3)            0         
_________________________________________________________________
lstm (LSTM)                  (None, 222, 128)          67584     
_________________________________________________________________
dropout (Dropout)            (None, 222, 128)          0         
_________________________________________________________________
lstm_1 (LSTM)                (None, 64)                49408     
_________________________________________________________________
dropout_1 (Dropout)          (None, 64)                0         
_________________________________________________________________
dense (Dense)                (None, 32)                2080      
_________________________________________________________________
dense_1 (Dense)              (None, 4)                 132       
=================================================================
Total params: 119,204
Trainable params: 119,204
Non-trainable params: 0
_________________________________________________________________
Epoch 1/80
1/9 [==>...........................] - ETA: 0s - loss: 1.3863 - accuracy: 0.15622/9 [=====>....
…
