
EXECUTION PARAMETERS: {NUMBER OF FOLDERS:  10 }-{NUMBER OF EPOCHS:  80 }-{NUMBER OF ROUTINE ITERATIONS:  1 }-{BATCH SIZE :  32 }-{SIGNAL MODE:  fp }-{AUGMENT: Sad }-{FEATURES:  ('mfcc', 'deltas', 'formants', 'lpcc') }-{EMOTIONS: ('Sad', 'Happy', 'Angry', 'Neutral') }

####ITERATION NUMBER:  1

#####FOLDER NUMBER: 1
Starting LSTM
Model: "sequential"
_________________________________________________________________
Layer (type)                 Output Shape              Param #   
=================================================================
masking (Masking)            (None, 44, 29)            0         
_________________________________________________________________
lstm (LSTM)                  (None, 44, 256)           292864    
_________________________________________________________________
dropout (Dropout)            (None, 44, 256)           0         
_________________________________________________________________
lstm_1 (LSTM)                (None, 128)               197120    
_________________________________________________________________
dropout_1 (Dropout)          (None, 128)               0         
_________________________________________________________________
dense (Dense)                (None, 64)                8256      
_________________________________________________________________
dropout_2 (Dropout)          (None, 64)                0         
_________________________________________________________________
dense_1 (Dense)              (None, 4)                 260       
=================================================================
Total params: 498,500
Trainable params: 498,500
Non-trainable params: 0
_________________________________________________________________
Epoch 1/80
10/10 - 20s - loss: 1.3841 - accuracy: 0.3444 - val_loss: 1.0923 - val_accuracy: 0.6176
Epoch 2/80
10/10 - 4s - loss: 1.2440 - accuracy: 0.4106 - val_loss: 1.1628 - val_accuracy: 0.5588
…
