
EXECUTION PARAMETERS: {NUMBER OF FOLDERS:  10 }-{NUMBER OF EPOCHS:  80 }-{NUMBER OF ROUTINE ITERATIONS:  1 }-{BATCH SIZE :  32 }-{SIGNAL MODE:  fp }-{AUGMENT: Sad }-{FEATURES:  ('mfcc', 'deltas', 'formants', 'intensity', 'pitch') }-{EMOTIONS: ('Sad', 'Happy', 'Angry', 'Neutral') }

####ITERATION NUMBER:  1

#####FOLDER NUMBER: 1
Starting LSTM
Model: "sequential"
_________________________________________________________________
Layer (type)                 Output Shape              Param #   
=================================================================
masking (Masking)            (None, 44, 31)            0         
_________________________________________________________________
lstm (LSTM)                  (None, 44, 256)           294912    
_________________________________________________________________
dropout (Dropout)            (None, 44, 256)           0         
_________________________________________________________________
lstm_1 (LSTM)                (None, 128)               197120    
_________________________________________________________________
dropout_1 (Dropout)          (None, 128)               0         
_________________________________________________________________
dense (Dense)                (None, 64)                8256      
_________________________________________________________________
dropout_2 (Dropout)          (None, 64)                0         
_________________________________________________________________
dense_1 (Dense)              (None, 4)                 260       
=================================================================
Total params: 500,548
Trainable params: 500,548
Non-trainable params: 0
_________________________________________________________________
Epoch 1/80
10/10 - 7s - loss: 1.4770 - accuracy: 0.2947 - val_loss: 1.3774 - val_accuracy: 0.2353
Epoch 2/80
10/10 - 3s - loss: 1.4781 - accuracy: 0.2483 - val_loss: 1.3278 - val_accuracy: 0.4118
…
