
EXECUTION PARAMETERS: {NUMBER OF FOLDERS:  10 }-{NUMBER OF EPOCHS:  80 }-{NUMBER OF ROUTINE ITERATIONS:  1 }-{BATCH SIZE :  32 }-{SIGNAL MODE:  fp }-{AUGMENT: Sad }-{FEATURES:  ('mfcc', 'lpcc', 'pitch', 'intensity') }-{EMOTIONS: ('Sad', 'Happy', 'Angry', 'Neutral') }

####ITERATION NUMBER:  1

#####FOLDER NUMBER: 1
Starting LSTM
Model: "sequential"
_________________________________________________________________
Layer (type)                 Output Shape              Param #   
=================================================================
masking (Masking)            (None, 44, 28)            0         
_________________________________________________________________
lstm (LSTM)                  (None, 44, 256)           291840    
_________________________________________________________________
dropout (Dropout)            (None, 44, 256)           0         
_________________________________________________________________
lstm_1 (LSTM)                (None, 128)               197120    
_________________________________________________________________
dropout_1 (Dropout)          (None, 128)               0         
_________________________________________________________________
dense (Dense)                (None, 64)                8256      
_________________________________________________________________
dropout_2 (Dropout)          (None, 64)                0         
_________________________________________________________________
dense_1 (Dense)              (None, 4)                 260       
=================================================================
Total params: 497,476
Trainable params: 497,476
Non-trainable params: 0
_________________________________________________________________
Epoch 1/80
10/10 - 5s - loss: 1.3841 - accuracy: 0.3543 - val_loss: 1.1069 - val_accuracy: 0.5882
Epoch 2/80
10/10 - 2s - loss: 1.2070 - accuracy: 0.4040 - val_loss: 1.1774 - val_accuracy: 0.5294
…
